…
cystitis interstitial 0: 98.21%, 1: 1.79%
viral pneumonia 0: 98.58%, 1: 1.42%
asthenopia 0: 98.94%, 1: 1.06%
endometriosis 0: 99.03%, 1: 0.97%
myelitis 0: 98.88%, 1: 1.12%
folate deficiency 0: 99.09%, 1: 0.91%
hypermetropia 0: 99.16%, 1: 0.84%
balanitis 0: 99.15%, 1: 0.85%
[UNK] 0: 60.22%, 1: 39.78%
Total size = 39,631 | train size = 39,631 | val size = 11,606 | test size = 12,236
Building model 0
MoleculeModel(
  (sigmoid): Sigmoid()
  (encoder): MPN(
    (encoder): ModuleList(
      (0): MPNEncoder(
        (dropout_layer): Dropout(p=0.2, inplace=False)
        (act_func): ReLU()
        (W_i): Linear(in_features=147, out_features=300, bias=False)
        (W_h): Linear(in_features=300, out_features=300, bias=False)
        (W_o): Linear(in_features=433, out_features=300, bias=True)
      )
      (1): MPNEncoder(
        (dropout_layer): Dropout(p=0.2, inplace=False)
        (act_func): ReLU()
        (W_i): Linear(in_features=147, out_features=300, bias=False)
        (W_h): Linear(in_features=300, out_features=300, bias=False)
        (W_o): Linear(in_features=433, out_features=300, bias=True)
      )
    )
    (ft_layers): ModuleList(
      (0): feature_layer(
        (activation): ReLU()
        (ft_layer): Linear(in_features=3746, out_features=256, bias=True)
      )
      (1): feature_layer(
        (activation): ReLU()
        (ft_layer): Linear(in_features=3746, out_features=256, bias=True)
      )
    )
  )
  (ffn): Sequential(
    (0): Dropout(p=0.2, inplace=False)
    (1): Linear(in_features=556, out_features=300, bias=True)
    (2): ReLU()
    (3): Dropout(p=0.2, inplace=False)
    (4): Linear(in_features=300, out_features=964, bias=True)
  )
)
Number of parameters = 1,681,096
Moving model to cuda
  0%|          | 0/25 [00:00<?, ?it/s]Epoch 0

  0%|          | 0/155 [00:00<?, ?it/s][A
                                       [A  0%|          | 0/25 [00:04<?, ?it/s]
Traceback (most recent call last):
  File "train.py", line 7, in <module>
    chemprop_train()
  File "/home/Yepeng/chem/chemprop/train/cross_validate.py", line 189, in chemprop_train
…
