…
cystitis interstitial 0: 98.21%, 1: 1.79%
viral pneumonia 0: 98.58%, 1: 1.42%
asthenopia 0: 98.94%, 1: 1.06%
endometriosis 0: 99.03%, 1: 0.97%
myelitis 0: 98.88%, 1: 1.12%
folate deficiency 0: 99.09%, 1: 0.91%
hypermetropia 0: 99.16%, 1: 0.84%
balanitis 0: 99.15%, 1: 0.85%
[UNK] 0: 60.22%, 1: 39.78%
Total size = 39,631 | train size = 39,631 | val size = 11,606 | test size = 12,236
Building model 0
MoleculeModel(
  (sigmoid): Sigmoid()
  (encoder): MPN(
    (encoder): ModuleList(
      (0): MPNEncoder(
        (dropout_layer): Dropout(p=0.2, inplace=False)
        (act_func): ReLU()
        (W_i): Linear(in_features=147, out_features=300, bias=False)
        (W_h): Linear(in_features=300, out_features=300, bias=False)
        (W_o): Linear(in_features=433, out_features=300, bias=True)
      )
      (1): MPNEncoder(
        (dropout_layer): Dropout(p=0.2, inplace=False)
        (act_func): ReLU()
        (W_i): Linear(in_features=147, out_features=300, bias=False)
        (W_h): Linear(in_features=300, out_features=300, bias=False)
        (W_o): Linear(in_features=433, out_features=300, bias=True)
      )
    )
    (ft_layers): ModuleList(
      (0): feature_layer(
        (ft_layer): Linear(in_features=3791, out_features=256, bias=True)
      )
      (1): feature_layer(
        (ft_layer): Linear(in_features=3791, out_features=256, bias=True)
      )
    )
  )
  (ffn): Sequential(
    (0): Dropout(p=0.2, inplace=False)
    (1): Linear(in_features=556, out_features=300, bias=True)
    (2): ReLU()
    (3): Dropout(p=0.2, inplace=False)
    (4): Linear(in_features=300, out_features=964, bias=True)
  )
)
Number of parameters = 1,692,616
Moving model to cuda
Epoch 0
Loss = 6.6286e-01, PNorm = 46.7039, GNorm = 0.1787, lr_0 = 2.7500e-04
Loss = 4.5605e-01, PNorm = 46.8429, GNorm = 0.2055, lr_0 = 4.3409e-04
Loss = 2.8439e-01, PNorm = 46.9475, GNorm = 0.0639, lr_0 = 5.9318e-04
Loss = 2.4918e-01, PNorm = 46.9829, GNorm = 0.0368, lr_0 = 7.5227e-04
Loss = 2.2605e-01, PNorm = 47.0743, GNorm = 0.0281, lr_0 = 9.1136e-04
…
