…
viral pneumonia 0: 98.66%, 1: 1.34%
asthenopia 0: 98.96%, 1: 1.04%
endometriosis 0: 98.91%, 1: 1.09%
myelitis 0: 98.67%, 1: 1.33%
folate deficiency 0: 99.05%, 1: 0.95%
hypermetropia 0: 99.14%, 1: 0.86%
balanitis 0: 99.19%, 1: 0.81%
[UNK] 0: 59.97%, 1: 40.03%
Total size = 63,473 | train size = 63,473 | val size = 63,473 | test size = 63,473
Building model 0
Loading and freezing parameters from model.pt.
MoleculeModel(
  (sigmoid): Sigmoid()
  (encoder): MPN(
    (encoder): ModuleList(
      (0): MPNEncoder(
        (dropout_layer): Dropout(p=0.2, inplace=False)
        (act_func): ReLU()
        (W_i): Linear(in_features=147, out_features=300, bias=False)
        (W_h): Linear(in_features=300, out_features=300, bias=False)
        (W_o): Linear(in_features=433, out_features=300, bias=True)
      )
      (1): MPNEncoder(
        (dropout_layer): Dropout(p=0.2, inplace=False)
        (act_func): ReLU()
        (W_i): Linear(in_features=147, out_features=300, bias=False)
        (W_h): Linear(in_features=300, out_features=300, bias=False)
        (W_o): Linear(in_features=433, out_features=300, bias=True)
      )
    )
    (ft_layers): ModuleList(
      (0): feature_layer(
        (ft_layer): Linear(in_features=3791, out_features=256, bias=True)
      )
      (1): feature_layer(
        (ft_layer): Linear(in_features=3791, out_features=256, bias=True)
      )
    )
  )
  (ffn): Sequential(
    (0): Dropout(p=0.2, inplace=False)
    (1): Linear(in_features=4091, out_features=300, bias=True)
    (2): ReLU()
    (3): Dropout(p=0.2, inplace=False)
    (4): Linear(in_features=300, out_features=964, bias=True)
  )
)
Number of unfrozen parameters = 1,517,764
Total number of parameters = 2,753,116
Moving model to cuda
Loading pretrained parameter "encoder.encoder.0.W_i.weight".
Loading pretrained parameter "encoder.encoder.0.W_h.weight".
Loading pretrained parameter "encoder.encoder.0.W_o.weight".
Loading pretrained parameter "encoder.encoder.0.W_o.bias".
Loading pretrained parameter "encoder.encoder.1.W_i.weight".
…
