…
viral pharyngitis 0: 98.64%, 1: 1.36%
cystitis interstitial 0: 98.26%, 1: 1.74%
viral pneumonia 0: 98.65%, 1: 1.35%
asthenopia 0: 98.96%, 1: 1.04%
endometriosis 0: 98.94%, 1: 1.06%
myelitis 0: 98.63%, 1: 1.37%
folate deficiency 0: 99.05%, 1: 0.95%
hypermetropia 0: 99.13%, 1: 0.87%
balanitis 0: 99.18%, 1: 0.82%
[UNK] 0: 59.93%, 1: 40.07%
Total size = 50,778 | train size = 50,778 | val size = 6,348 | test size = 6,347
Building model 0
MoleculeModel(
  (sigmoid): Sigmoid()
  (encoder): MPN(
    (encoder): ModuleList(
      (0): MPNEncoder(
        (dropout_layer): Dropout(p=0.2, inplace=False)
        (act_func): ReLU()
        (W_i): Linear(in_features=147, out_features=300, bias=False)
        (W_h): Linear(in_features=300, out_features=300, bias=False)
        (W_o): Linear(in_features=433, out_features=300, bias=True)
      )
      (1): MPNEncoder(
        (dropout_layer): Dropout(p=0.2, inplace=False)
        (act_func): ReLU()
        (W_i): Linear(in_features=147, out_features=300, bias=False)
        (W_h): Linear(in_features=300, out_features=300, bias=False)
        (W_o): Linear(in_features=433, out_features=300, bias=True)
      )
    )
    (ft_layers): ModuleList(
      (0): feature_layer(
        (ft_layer): Linear(in_features=3791, out_features=256, bias=True)
      )
      (1): feature_layer(
        (ft_layer): Linear(in_features=3791, out_features=256, bias=True)
      )
    )
  )
  (ffn): Sequential(
    (0): Dropout(p=0.2, inplace=False)
    (1): Linear(in_features=4091, out_features=300, bias=True)
    (2): ReLU()
    (3): Dropout(p=0.2, inplace=False)
    (4): Linear(in_features=300, out_features=964, bias=True)
  )
)
Number of parameters = 2,753,116
Moving model to cuda
  0%|          | 0/25 [00:00<?, ?it/s]Epoch 0

  0%|          | 0/199 [00:00<?, ?it/s][A
  1%|          | 1/199 [00:02<07:30,  2.28s/it][A
  1%|          | 2/199 [00:02<04:07,  1.26s/it][A
  2%|▏         | 3/199 [00:04<05:24,  1.65s/it][A
  2%|▏         | 4/199 [00:05<03:54,  1.20s/it][A
…
